# YOLOv5 🚀 by Ultralytics, GPL-3.0 license

# Parameters
nc: 21  # number of classes
depth_multiple: 0.33  # model depth multiple
width_multiple: 0.50  # layer channel multiple
anchors:
  - [ 10,13, 16,30, 33,23 ]  # P3/8
  - [ 30,61, 62,45, 59,119 ]  # P4/16
  - [ 116,90, 156,198, 373,326 ]  # P5/32

backbone:
  # [from, number, module, args]
  [
    [ -1, 1, Conv, [ 64, 6, 2, 2 ] ], # 0-P1/2
    [ -1, 1, Conv, [ 128, 3, 2 ] ], # 1-P2/4
    [ -1, 3, C3, [ 128 ] ],
    [ -1, 1, Conv, [ 256, 3, 2 ] ], # 3-P3/8
    [ -1, 6, C3, [ 256 ] ],
    [ -1, 1, Conv, [ 512, 3, 2 ] ], # 5-P4/16
    [ -1, 9, C3, [ 512 ] ],
    [ -1, 1, Conv, [ 1024, 3, 2 ] ], # 7-P5/32
    [ -1, 3, C3, [ 1024 ] ],
    [ -1, 1, SPPF, [ 1024, 5 ] ], # 9
  ]

# YOLOv5 v6.0 head
head:
  [ [ -1, 1, Conv, [ 256, 1, 1, None, 1, 1, False ] ] , # 10 input_proj.2
    [ -1, 1, AIFI, [ 1024, 8 ] ],
    [ -1, 1, Conv, [ 256, 1, 1 ] ] ,  # 12, Y5, lateral_convs.0

    [ -1, 1, nn.Upsample, [ None, 2, 'nearest' ] ],
    [ 6, 1, Conv, [ 256, 1, 1, None, 1, 1, False ] ],  # 14 input_proj.1
    [ [ -2, -1 ], 1, Concat, [ 1 ] ],
    [ -1, 3, RepC3, [ 256, False ] ],  # 16, fpn_blocks.0
    [ -1, 1, Conv, [ 256, 1, 1 ] ],   # 17, Y4, lateral_convs.

    [ -1, 1, nn.Upsample, [ None, 2, 'nearest' ] ],
    [ 3, 1, Conv, [ 256, 1, 1, None, 1, 1, False ] ],  # 19 input_proj.0
    [ [ -2, -1 ], 1, Concat, [ 1 ] ],  # cat backbone P4
    [ -1, 3, RepC3, [ 256, False ] ],    # X3 (21), fpn_blocks.1

    [ -1, 1, Conv, [ 256, 3, 2 ] ],   # 22, downsample_convs.0
    [ [ -1, 17 ], 1, Concat, [ 1 ] ],  # cat Y4
    [ -1, 3, RepC3, [ 256, False ] ],    # F4 (24), pan_blocks.0

    [ -1, 1, Conv, [ 256, 3, 2 ] ],   # 25, downsample_convs.1
    [ [ -1, 12 ], 1, Concat, [ 1 ] ],  # cat Y5
    [ -1, 3, RepC3, [ 256, False ] ],    # F5 (27), pan_blocks.1

    [ [ 21, 24, 27 ], 1, Detect, [ nc, anchors ] ],  # Detect(P3, P4, P5)
  ]